…
    \ 0., 0., 0., 0.,\n          0., 0., 0., 0., 0., 0., 0., 0., 0., 0., 0., 0., 0.,\
    \ 0., 0., 0., 0., 0., 0., 0., 0., 0., 0.,\n          0., 0., 0., 0., 0., 0., 0.,\
    \ 0., 0., 0., 0., 0., 0., 0., 0., 0., 0., 0., 0., 0., 0., 0., 0.,\n          0.,\
    \ 0., 0., 0., 0., 0., 0., 0., 0., 0., 0., 0., 0., 0., 0., 0., 0., 0., 0., 0.,\
    \ 0., 0., 0.,\n          0., 0., 0.]]])))"
lr_schedule:
  desc: null
  value: <function constant_fn.<locals>.func at 0x142c759d0>
policy:
  desc: null
  value: "RecurrentActorCriticCnnPolicy(\n  (features_extractor): NatureCNN(\n   \
    \ (cnn): Sequential(\n      (0): Conv2d(3, 32, kernel_size=(8, 8), stride=(4,\
    \ 4))\n      (1): ReLU()\n      (2): Conv2d(32, 64, kernel_size=(4, 4), stride=(2,\
    \ 2))\n      (3): ReLU()\n      (4): Conv2d(64, 64, kernel_size=(3, 3), stride=(1,\
    \ 1))\n      (5): ReLU()\n      (6): Flatten(start_dim=1, end_dim=-1)\n    )\n\
    \    (linear): Sequential(\n      (0): Linear(in_features=1024, out_features=512,\
    \ bias=True)\n      (1): ReLU()\n    )\n  )\n  (pi_features_extractor): NatureCNN(\n\
    \    (cnn): Sequential(\n      (0): Conv2d(3, 32, kernel_size=(8, 8), stride=(4,\
    \ 4))\n      (1): ReLU()\n      (2): Conv2d(32, 64, kernel_size=(4, 4), stride=(2,\
    \ 2))\n      (3): ReLU()\n      (4): Conv2d(64, 64, kernel_size=(3, 3), stride=(1,\
    \ 1))\n      (5): ReLU()\n      (6): Flatten(start_dim=1, end_dim=-1)\n    )\n\
    \    (linear): Sequential(\n      (0): Linear(in_features=1024, out_features=512,\
    \ bias=True)\n      (1): ReLU()\n    )\n  )\n  (vf_features_extractor): NatureCNN(\n\
    \    (cnn): Sequential(\n      (0): Conv2d(3, 32, kernel_size=(8, 8), stride=(4,\
    \ 4))\n      (1): ReLU()\n      (2): Conv2d(32, 64, kernel_size=(4, 4), stride=(2,\
    \ 2))\n      (3): ReLU()\n      (4): Conv2d(64, 64, kernel_size=(3, 3), stride=(1,\
    \ 1))\n      (5): ReLU()\n      (6): Flatten(start_dim=1, end_dim=-1)\n    )\n\
    \    (linear): Sequential(\n      (0): Linear(in_features=1024, out_features=512,\
    \ bias=True)\n      (1): ReLU()\n    )\n  )\n  (mlp_extractor): MlpExtractor(\n\
    \    (policy_net): Sequential()\n    (value_net): Sequential()\n  )\n  (action_net):\
    \ Linear(in_features=256, out_features=9, bias=True)\n  (value_net): Linear(in_features=256,\
    \ out_features=1, bias=True)\n  (lstm_actor): LSTM(512, 256)\n  (lstm_critic):\
    \ LSTM(512, 256)\n)"
rollout_buffer:
  desc: null
  value: <sb3_contrib.common.recurrent.buffers.RecurrentRolloutBuffer object at 0x142b6ac70>
_logger:
  desc: null
  value: <stable_baselines3.common.logger.Logger object at 0x16812e1c0>
